src/chatbot_ann.pth (torch, 842359 bytes, 6 tensors)

l1.weight f4 [100, 1917]
00000000: e3b4 6b3c 63c5 cdbc a21e 9bbc e41d 253c
00000010: c28c 8a39 0ab5 fb3c ee02 93bc 137b 973b
00000020: e499 4b3d 5a37 b23a fcfd a1bd 179e 0bbd
00000030: 283b 9f3a 3473 82bc 9ec0 f43b f53c 4b3d
00000040: b826 91bc f2d2 b53a 544f d03b 72e5 d63c
00000050: 9024 1c3d 0b56 203c 4a57 fe3c cfe9 953d
00000060: 2c69 7cbb 8824 883d b7aa fbbb 36bb 133d
00000070: 0cb5 a7bc 8307 abbb cac0 1fbc fe6c cd3d
00000080: b917 a53c 9737 9c3c ba3c 62bc 0ddc 263f
00000090: b210 043d 0d63 513d c2d5 f23b cd42 653d
000000a0: 6ccc b73d dad4 6c3c d8ef 873d d973 d33b
000000b0: bab7 50bc 8e87 afbb bd79 ba3b a7f7 bd3c
000000c0: 0da2 1ebc 802d 08bd 8da6 cc3c 5074 4f3c
000000d0: cd98 1abb d00a 5ebb 45a5 ecbb 0199 583c
000000e0: b6d8 ab3d e608 0dbc 90ab 0f3b cb92 65bc
000000f0: 61f7 db3c 6f1e a83b 5e91 e5bb 33b4 e83c
00000100: 461e 593c fa19 bebc f636 3dbb b1b4 c9bd
00000110: 4ff3 95bc 517d a7b9 63b3 473d e7cd 843d
00000120: 7ae5 ab3b f4fa 573c c8ca 0d3e 8a05 9e3c
00000130: b1de 2dbc 626e 9a3e 134a 5ebd 0b4d 9c3b
00000140: dcad cdbb 4e34 493b d802 d93b da26 b83b
00000150: 1c7a 133d 0c56 a7bc 601e 923d d464 3c3d
00000160: 5659 c63b 73e1 ee3d 6894 1d3d 20a0 1fbc
00000170: 95a3 cb3c 8d8b c53d 0f03 ca3c 3026 6f3c
00000180: 37c4 e43c 2f8d 963e a635 023c 38e5 303b
00000190: 77a6 303d e0f3 273d 6d70 873c 04d9 93bb
000001a0: f6a8 ff3c 5fe6 29bc a76c 913d b95c f03c
000001b0: aa0f a0ba f181 74bc e64b 103c c756 f23c
000001c0: 64de bf3c d153 8d3d a79a 5eba 197d bbbc
000001d0: 441a a8bc ede0 693c ad3f 9cbd 4123 01bc
000001e0: b4d6 3d3e a5af 5c3b e226 ee3c e6e1 b43c
000001f0: b844 a83d 35d8 2a3c fe04 b43c 0fab dc3d
00000200: 425c 073c fbd5 f9bb 5c6c d5bb 3845 bebc
00000210: 606b cc3d 72ee 33bb 8fc2 06bc 2388 813c
00000220: d5bf a7bc da86 69bc d309 9f3d 7aa3 61bc
00000230: 525c 8b3c 18aa 1b3d 93ba 26bc 8f76 a83d
00000240: 1eb6 643c 2067 db3d 3ef1 3c3d 05c9 943d
00000250: 4178 c13a b565 e73b 946f 873d 0854 37bd
00000260: 8bc0 38bc b576 1b3e 8aa4 303d 6185 2cbd
00000270: 7c21 56bc ad34 b03d c768 213b 443e 593c
00000280: 5f22 45bc 653a 6e3d ec21 9fbc c0bd 213e
00000290: 1657 563d ad87 a0bc ea45 103c 078f 203b
000002a0: 1004 ad3b 4b0a 5c3c 6768 953d cc7e f53b
000002b0: 11e0 7a3c cb0a dc3c fc28 2f3c 4952 0f3d
000002c0: 809d a63c 5da3 3fbc 840b b2bb ea4e 89ba
000002d0: 8496 b43b be9f bdbd b774 a03c b911 e03d
000002e0: 4b79 193d a351 4f3e 415e 49bc 8068 1f3d
000002f0: def7 e03c c1b1 eb3b 3132 ba3d e0ad 493c
00000300: 2a45 213d 4428 4cbd a980 e63b 2006 4e3c
00000310: 448a b5bc ab50 743c e7fe 70bc b266 5ebc
00000320: 29fb 393d 0d39 553d f656 81bc 946d 5dbb
00000330: de30 0ebd 34cd a9bc cd7c ef3a 346a b73b
00000340: 98ec 7abb 8238 24bc 6ba5 233d aa07 6c3d
00000350: 6997 d93c fe10 713d adf6 09bc 2d04 993c
00000360: 0b5c 783c d192 833c 8bf5 2f3c de5f 993d
00000370: d0e6 333c bc32 073d b835 a83c 9973 163d
00000380: f449 86bc c269 653d 1d3b 193c bb9f 5a3c
00000390: 41d1 7d3c 0947 3d3d f744 1e3b d25a 243d
000003a0: 80e9 3fbd 47e2 843c 63e4 3c3d 0ad1 0a3d
000003b0: 5dbe dbbb 756f 6f3c 1dea 94bd e98d 0e3d
000003c0: 62fb 83bc b650 7c3d 024c 683d 167c 143d
000003d0: 41c3 083e 676f f53d ac4f f2ba 3bd7 e13d
000003e0: be8b 6a3c 69cd d53b 92d0 393d 9fd2 cabd
000003f0: c58c 573d 5718 143d 4973 ccba 3b6e 9dbb
0.0143863885 -0.025118535 -0.018935505 0.010077927 0.00026426284 0.030725975 -0.017945733 0.004622826
0.04970731 0.0013596818 -0.07909772 -0.034086313 0.0012148367 -0.015924074 0.007469251 0.04961868
-0.017718658 0.0013872071 0.006357113 0.026232455 0.038120806 0.009786139 0.031047482 0.07319986
-0.0038514836 0.06647593 -0.007680263 0.03606721 -0.020472072 -0.0052194013 -0.009750554 0.10030554
0.020152913 0.019069476 -0.013808424 0.6517952 0.032242484 0.051119853 0.007410736 0.05597191
0.08974537 0.014455045 0.066375434 0.006453019 -0.012739116 -0.0053567355 0.005690782 0.023189379
-0.009682191 -0.033246517 0.024981761 0.012662008 -0.0023589612 -0.0033880956 -0.00722185 0.013220073
0.08390944 -0.008608079 0.0021922328 -0.014012049 0.026851358 0.005130581 -0.0070058545 0.028406238
0.013251847 -0.023205746 -0.002887187 -0.09848917 -0.018304495 -0.0003194609 0.04875506 0.06484585
0.0052458616 0.0131823905 0.13846886 0.01928975 -0.010612176 0.3016234 -0.05426986 0.0047699264
-0.006276829 0.0030701342 0.0066226535 0.005619866 0.036005124 -0.020426773 0.071347 0.045994595
0.00605313 0.11664095 0.03847161 -0.009742767 0.024858275 0.09645758 0.024659662 0.014596507
0.027925594 0.2940459 0.007947361 0.0026992094 0.043127503 0.04100406 0.016533101 -0.0045119543
0.031208497 -0.010369866 0.07100802 0.029341089 -0.00122117 -0.014923559 0.008807158 0.029582394
0.023421474 0.06900752 -0.0008491673 -0.0228868 -0.020520337 0.014274818 -0.07629333 -0.00788194
0.18538934 0.0033674028 0.029071275 0.022080373 0.08216232 0.010427524 0.021975037 0.10774814
0.008261742 -0.0076243854 -0.0065131616 -0.023226365 0.09981418 -0.0027455357 -0.008225097 0.015811985
-0.020477215 -0.0142533425 0.07765546 -0.013771886 0.017011795 0.03800401 -0.010176319 0.08225738
0.013959436 0.10713029 0.046128504 0.07264904 0.001476057 0.007061685 0.06613079 -0.044757873
-0.011276375 0.15182002 0.043125667 -0.042119388 -0.013069507 0.08603797 0.0024629103 0.013259474
-0.0120321205 0.058161158 -0.019425355 0.1579504 0.052329145 -0.019595945 0.008805731 0.0024499313
0.0052800253 0.013430188 0.07295304 0.007491922 0.015312211 0.026860615 0.010690924 0.034990583
0.020338774 -0.011696664 -0.0054335017 -0.0010475789 0.005511107 -0.09258984 0.019586904 0.1094088
0.03746919 0.20245986 -0.012290538 0.03891802 0.027461942 0.007192821 0.090916045 0.012309521
0.0393726 -0.049843088 0.0070343805 0.0125747025 -0.022160657 0.014911811 -0.014709211 -0.013574289
0.04540554 0.05205636 -0.015788537 -0.0033787237 -0.034714572 -0.020727731 0.0018271446 0.005597377
-0.0038287994 -0.010023238 0.039952677 0.057624497 0.026561456 0.058854096 -0.0084206285 0.018678749
0.0151586635 0.016061218 0.010739694 0.07488988 0.010980323 0.03300737 0.020533428 0.036731336
-0.016392685 0.05600906 0.009352473 0.013343747 0.015491785 0.046210323 0.0024149993 0.040125675
-0.046853542 0.016221179 0.046116244 0.03389076 -0.0067060427 0.014613976 -0.07271216 0.034803305
-0.01611108 0.06160041 0.05671311 0.03625115 0.13355733 0.11984139 -0.0018486879 0.1102738
0.014315544 0.006524731 0.045364924 -0.09903454 0.052624483 0.036156025 -0.0015598322 -0.0048044003

l1.bias f4 [100]
00000000: 5f3f bf3d ae83 803a b4f0 8e3d 85d7 fc3d
00000010: 732c 1f3e 849e 863d 3694 6d3d 6f20 49ba
00000020: d9d6 843d bfc8 563e 6a1d 29ba f38c f03c
00000030: ce1a 713d b912 ecb9 122d 113d 0a54 9339
00000040: afa6 1d3e 3c97 3d3e dd0d 6c3c d900 ab3d
00000050: 6fa7 3d3d 9d9b 583c 52f0 edb9 c659 953d
00000060: 5534 843d 90fd a13d aaa8 a73d c40e 023d
00000070: db55 c43c ade9 193d f8c9 6a3d c9ba 543d
00000080: 97fc 543d 7050 713c 6d02 d2b9 0b58 063e
00000090: c3b5 233d c8c4 7c3e 74b7 653e f308 0b3d
000000a0: e0df 823c c452 d73c fccb 6e3e 9414 953d
000000b0: 5c88 3f3e a947 313d a880 9d3d 4d61 0e3d
000000c0: 5128 ad3d 67a7 393d 78ed e9ba 96f9 eeb9
000000d0: 8ff4 563c b0b0 57ba c129 763e 23c6 8e3d
000000e0: d329 803d f7a6 0b3e 9259 5d3d 641b e93d
000000f0: 84a5 513d 7429 72ba 3e2a 1b3d 519e 853d
00000100: 24fc 6a3d 093f e03d 90bc 0b3e 357e ad3d
00000110: df30 3e3e d87a 813d 10f0 873d 6f8c 893d
00000120: f016 013d b4ed 0a3d 6454 833d d8ba 91b9
00000130: eff7 2b3e 0a39 6b3e 7e2a 1f3e cdf3 0f3d
00000140: a23b adb9 5937 b63d 5209 81ba 6cdc 61ba
00000150: aef8 e63c 9555 843d 98d0 493d c3a7 2c3d
00000160: 4a37 8a3d 95b8 cb3d d48d 69b9 8b7b 423d
00000170: c291 993d 4055 b73b 8680 473e bba3 883d
00000180: 8289 173e 48f3 80ba 07be 593d 00f0 123e
0.09338259 0.0009804869 0.06979504 0.123457946 0.155443 0.06573203 0.058002673 -0.00076723745
0.064862914 0.20975016 -0.00064512214 0.029364085 0.058863454 -0.00045027377 0.035443373 0.0002810064
0.15395616 0.18514723 0.014407602 0.08349771 0.046302255 0.013220695 -0.00045383215 0.072925135
0.06455294 0.07909691 0.08186467 0.031752363 0.02396672 0.037576366 0.05732152 0.051935945
0.0519987 0.01472865 -0.0004005613 0.13119523 0.039968263 0.24684441 0.22433263 0.03394408
0.015975893 0.026284583 0.23320001 0.072793156 0.1870436 0.04328123 0.07690555 0.034760762
0.08454955 0.045325663 -0.001784726 -0.00045580853 0.013119831 -0.00082279276 0.24039365 0.06971385
0.06257977 0.13637911 0.0540405 0.113821775 0.05118324 -0.00092377444 0.037882082 0.06524337
0.057369366 0.10949523 0.1364615 0.08471338 0.1857333 0.06322259 0.06637585 0.06716239
0.031516016 0.033918098 0.064125806 -0.00027795765 0.16793798 0.22970977 0.15543553 0.035144616
-0.0003304156 0.088972755 -0.0009844697 -0.0008615914 0.028194752 0.06461636 0.049271196 0.042152178
0.06748827 0.099473156 -0.00022273447 0.0474811 0.07498504 0.0055948794 0.19482622 0.06671854
0.14798549 -0.0009838128 0.05315974 0.14349365

l2.weight f4 [100, 100]
00000000: 335e 24bd 7217 933d ba20 0f3d dbd2 a13d
00000010: a73d 4abd ad5e 2dbd 60bf d7bc 54b4 e2bc
00000020: 3a1e bb3d 7f67 9c3d 401b 3e3d a7c3 ab3d
00000030: bcbe 7bbd d3bf b4bd 34db 89bd 400f b83a
00000040: c70b be3d 3c16 aebd fb37 a63c 064c 3e3c
00000050: c1b2 42bd e558 8cbd 6857 3bbd b386 923d
00000060: 5374 22bd da33 6dbd 6d96 c7bd 4ff1 c73d
00000070: ddd0 7ebd da61 723d 6507 b23d 82cb 473d
00000080: 00e3 243b d98c 17bd 284c ca3d 23d8 41bd
00000090: 2320 a0bd e85c 0dbc 30a6 0dbc a79a 5fbd
000000a0: 6a44 aabd 5ab4 14bd 5b68 903d 44c6 0cbd
000000b0: 139a f6ba 38b4 cdbd 0578 a6bd 64a0 363c
000000c0: 2594 8bbd 7234 033d e233 58bd feed 8ebd
000000d0: 6167 7d3d aea0 fe3c 80f1 053c db8f b03d
000000e0: bf12 513d 9da8 25bd 03de a7bd 95f4 bf3d
000000f0: 48c7 a1bc 4205 c23c 2d53 2fbd bd4a a1bd
00000100: 8117 813c a63e a9bc 2720 75bd 9676 b73b
00000110: ccce cdbc 56e3 98bd 77e8 01bd 7a2b 333c
00000120: c14a ed3c 7625 a33d 4c60 fbbc d841 bcbd
00000130: c362 b3bd 2883 bbbd edce babd 0724 2bbc
00000140: e260 cb3c 5882 9dbd 4a3a 8a3d d98b 92bd
00000150: 32e7 b43c a34d 813d ca2e 0fbd 9129 ab3d
00000160: f645 c5bd 62ba 563d eece 4ebd b551 683d
00000170: 8ab6 13bd 29d6 283c da00 423d 8284 2b3c
00000180: bdec 48bd a0d5 c53c b16b c93d 0277 98bd
00000190: 7e86 8e3e 3413 343f 3081 893e 65c3 0e3e
000001a0: 30eb dbbe a988 3f3e 9749 153e 1720 593f
000001b0: f7c4 1dbe 66b3 b8be cc9d 283f 73fe 5f3e
000001c0: 9ef2 453e 551c d93e 4685 353e 8f83 96bd
000001d0: ceb2 2bbe 1501 5abd 786b 8b3d 7fb3 efbd
000001e0: cbc9 9dbb b1a8 853e 0db6 703e 704b 443e
000001f0: a5f6 5e3e 4808 363e 0543 02be d613 923e
00000200: 36f1 183e 8a43 673e f471 68bd dda4 a03e
00000210: 10a6 6f3e 5f2b 473e bc42 ae3f 4643 debe
00000220: 4c11 30bc 315e cabe 00e5 473d e4d8 993e
00000230: af44 a13e ee53 053f 4e57 22bf c6ef 6b3e
00000240: e16d 1dbd f732 d63d 7b7d bf3d 7ee6 4c3e
00000250: 8c9f 4dbe 042d 4b3e 0ef6 173e 9161 6c3f
00000260: cff9 a13e 41f2 8a3e 3b94 8dbe 887f a43e
00000270: b616 a6bd c4ae a63e a67e 1b3e 9c7b e5bd
00000280: 6887 b2bc d7a1 273f baae 513e da05 5a3e
00000290: 60b4 62bd ed85 223d 264f 1ebe dc77 2b3e
000002a0: 0471 91be 83ad 873e de9e c23c 57e0 4e3e
000002b0: e96b d53c 5f74 24be 3144 4c3e 548f c23e
000002c0: 6949 fbbd bf50 293e ae15 8c3e bc53 ab3d
000002d0: 176a 333f 443a 533e 8554 4e3f 1c90 c73e
000002e0: 8f9e 64be 8098 09be 8a2c 8cbd b87f 993e
000002f0: 3ca6 febd 1c00 9a3e 5538 c73f 48e4 c83b
00000300: 3213 69be 6dda 463d fa25 00bc 850b 83bd
00000310: 2214 3fbe 761b 3d3e c9b3 533e ff93 963d
00000320: 92b3 6a3e d489 673d cac0 cd3e 2d3b a13e
00000330: 719c 55bd 52b3 e03e e7eb 94bd 5e62 6a3e
00000340: d1d0 1ebe 9be3 c03c 9f7c c03d bb75 633e
00000350: 7a2e 493e 09bb 533e 5f0c 603d 5f3d 223c
00000360: b312 73bd 5e3b 143e 6adb 0f3c 0892 19bd
00000370: f81a 603d f3af 913d d401 3b3e 27aa 68bd
00000380: a94e fd3d b47e 6b3e 2872 5cbe c302 163e
00000390: 7d52 a8bc 19f8 663e f430 79be ae52 2b3e
000003a0: 33f7 953e 01c1 1b3e 744f d33e 93a7 7bbc
000003b0: ccc4 7a3d d9cb 7c3d bb30 703b 3a7a 7ebc
000003c0: d74a 113e 9283 813e 3c9b 723c 5002 b03e
000003d0: cb9d 9c3c e052 803e 659e a2bd 1963 a1bb
000003e0: 433a c6be 0984 543e bed9 cc3d a426 353e
000003f0: ab22 043d 0300 333d c8a8 4cbc 3379 70bd
-0.040128898 0.07182206 0.03494332 0.079015456 -0.049375203 -0.042326618 -0.026336372 -0.027673878
0.09136625 0.07636928 0.046412706 0.08386927 -0.061461195 -0.0882565 -0.06731263 0.0014042631
0.0927959 -0.085003346 0.020290365 0.011614805 -0.047533754 -0.06852893 -0.045737654 0.07154598
-0.039661717 -0.057910778 -0.09745488 0.09762823 -0.062210906 0.05917535 0.08692817 0.048778065
0.0025159717 -0.036999557 0.09877807 -0.047325265 -0.078186296 -0.008628108 -0.008645579 -0.054590847
-0.0831383 -0.03630481 0.07051154 -0.03436877 -0.0018814228 -0.100441396 -0.08128361 0.011146639
-0.06815366 0.032032438 -0.052783854 -0.06978987 0.061866168 0.031082477 0.008175254 0.08621188
0.05104327 -0.040444005 -0.08196642 0.09372822 -0.019748345 0.023684148 -0.042803932 -0.07875583
0.015758278 -0.020659756 -0.059845116 0.0055988533 -0.025123022 -0.07465236 -0.031715836 0.010935659
0.02896631 0.079661295 -0.030685566 -0.09192246 -0.08759072 -0.091558754 -0.09121499 -0.010445601
0.02482647 -0.07690877 0.06749399 -0.0715558 0.022082899 0.06313636 -0.03495673 0.083575375
-0.096324846 0.052423842 -0.050490312 0.056718547 -0.036062755 0.010304966 0.047364093 0.010468604
-0.049053896 0.024149716 0.09834994 -0.07444574 0.27836984 0.703418 0.26856375 0.13941725
-0.4295287 0.18704475 0.14578854 0.8481459 -0.15407167 -0.3607437 0.6586578 0.21874408
0.19330832 0.42404428 0.17726621 -0.073493116 -0.16767427 -0.05322369 0.068076074 -0.11704158
-0.0048153154 0.26105264 0.23506947 0.19169402 0.21773775 0.17776597 -0.12720878 0.2853076
0.14935765 0.22584358 -0.0567493 0.3137578 0.23403192 0.19450139 1.3614116 -0.434107
-0.010746311 -0.39524987 0.048802376 0.30048287 0.31497714 0.5208119 -0.63414466 0.23040685
-0.038434867 0.104589395 0.093501054 0.20009801 -0.20080394 0.19841391 0.14839956 0.92336375
0.316359 0.2713795 -0.27652153 0.3212855 -0.081098005 0.3255521 0.15185031 -0.11205217
-0.021793082 0.65481323 0.20476809 0.21291295 -0.0553478 0.039678503 -0.1545988 0.16744941
-0.28406537 0.26499566 0.023757394 0.20202766 0.026052432 -0.16060017 0.19947888 0.37999976
-0.12269861 0.16534708 0.2736029 0.083655804 0.70083755 0.20627695 0.80597717 0.38977134
-0.2232611 -0.1343708 -0.06844433 0.29980254 -0.124340504 0.30078208 1.5564066 0.006130729
-0.22761229 0.04854815 -0.007821554 -0.063986816 -0.18660024 0.18467507 0.20674051 0.07352447
0.22920063 0.056527928 0.4018615 0.3149046 -0.052151147 0.4388681 -0.07271557 0.22889087
-0.15509345 0.02354603 0.093987696 0.2221288 0.19646636 0.20676817 0.054699298 0.009902327
-0.059344005 0.14475772 0.00878034 -0.037492782 0.05471322 0.07113638 0.18262416 -0.056802895
0.12368519 0.22997552 -0.21527922 0.14649491 -0.020547146 0.22555579 -0.2433508 0.16730759
0.2929016 0.15210344 0.41271555 -0.015359777 0.061222836 0.06171784 0.003665014 -0.015532071
0.14188705 0.25295693 0.014807519 0.34376764 0.01911821 0.2506323 -0.079403676 -0.0049251434
-0.38716325 0.20753492 0.100024685 0.17690521 0.032259624 0.043701183 -0.012491412 -0.058709335

l2.bias f4 [100]
00000000: b096 52bd 993a 413e 22b9 dc3d 0df7 6b3e
00000010: 4254 b43d 994a f43c d2c0 b1bd 8636 093c
00000020: 41cc 163d 3ad6 483e c176 7dbd b1e8 183e
00000030: 69ec 8e3d 72db 5bbd 2f3d 793c ea01 b4bd
00000040: fb3f 28bc deb5 a13c d9c5 993d b649 8a3e
00000050: 26b8 4d3d 63f9 193e df57 2fbd 797c 5a3d
00000060: ca46 9e3d 3f07 b13d 5351 26bd 3ac3 893d
00000070: 02b9 54bd 13e4 4a3d b371 e5bd 6648 c1bc
00000080: d549 883d ae81 9a3e 8d81 c33d 1b87 3b3d
00000090: c72a fabc d90f bebd 7b82 d13d 1929 e0bd
000000a0: 3305 61bc 6376 a0bd 1274 293d a8bd ebbb
000000b0: 4525 203d 6a3a a4bd 9936 173e 9fdb bf3c
000000c0: 50d6 97bc 98f7 9fbc 2da4 39bd 71d8 e9bc
000000d0: 69a1 26bd c9cd 943d e592 ca3d c089 873e
000000e0: c08c 803a 4a64 53bd acae 483e 914f 72bd
000000f0: a28c a63d 6243 7e3e 2149 b6bc c354 8abd
00000100: cc26 4a3e 753e 70b8 2ca0 b73b a096 c4bd
00000110: 0116 6abd dc9c 6b3e 46e3 5b3c 090f 083d
00000120: ec61 393d e7e6 b93c 13ae 88bd ee24 c73d
00000130: f08b 903c f5e4 7e3c b2d8 5e3d b66f 473e
00000140: 0681 99bd 4e96 303d a7fa 593d cb9c 123e
00000150: 971c 5bbd d072 003d 29a1 003b 2f5a aabd
00000160: df57 a33d e427 833d 9e92 95bd 0204 483e
00000170: 8419 8bbd 0f8f 0a3e 560e bb3d cea5 3fbc
00000180: 42c4 8b3d 4590 383c cb4b 8b3e e129 363e
-0.051413238 0.1887001 0.10777499 0.23043461 0.088051334 0.029820727 -0.08679356 0.008374816
0.036815885 0.19612971 -0.06188083 0.14932515 0.069786854 -0.053676076 0.015212341 -0.087894276
-0.01026916 0.019740041 0.075084396 0.27009362 0.050224446 0.1503654 -0.04280841 0.053341363
0.07728346 0.0864396 -0.0406049 0.0672669 -0.05193425 0.049533915 -0.11203327 -0.023594093
0.06654707 0.30177063 0.09546194 0.045783143 -0.030537976 -0.092803665 0.10229965 -0.10945339
-0.01373415 -0.078350805 0.04137046 -0.0071942396 0.039098043 -0.08018954 0.14766921 0.023420153
-0.01853481 -0.019527242 -0.045322586 -0.02854559 -0.040681276 0.07265813 0.09891299 0.26472282
0.0009807572 -0.051609315 0.19597882 -0.05915791 0.08132292 0.24830392 -0.022251667 -0.06754448
0.19741362 -5.7278627e-05 0.005603811 -0.09599042 -0.05714989 0.23009056 0.013420885 0.033217464
0.0452594 0.02269311 -0.06673827 0.09723841 0.017644852 0.015557517 0.054405876 0.19476208
-0.074953124 0.04311209 0.053217556 0.14317624 -0.053494062 0.031359494 0.001962731 -0.083179824
0.079757445 0.06404093 -0.07303356 0.19532779 -0.06791976 0.13531135 0.09133594 -0.011697246
0.068245426 0.011264865 0.27206263 0.17789413

l3.weight f4 [5, 100]
00000000: a6b5 d4bc 3be9 27be 6a20 a0bd bd22 e5bf
00000010: 8814 13bf aecf f5be 8c08 e5bc 6d40 86bf
00000020: f18f 62bf 5f69 cabf b9c0 bf3d ce3b 0bbf
00000030: 256e d4be db5d 13c0 24b3 8dbf e491 d53c
00000040: 8999 2bbe 28c2 70bf f975 2ebf 4992 d7bc
00000050: e7f8 61be f8ab 3fbf 0f2b 4fbd b6c3 84be
00000060: 0080 a7bf effc 04bf 751b a33d bc2b a3be
00000070: c839 a7be 38b3 4cbf 6ff0 a23d 9b22 1ac0
00000080: 60f7 89bd 999e a0bf a2fe 25bf eeed 39bf
00000090: 68e1 ddbe bdc7 613d 1001 45bf 3968 01bf
000000a0: 15a7 a7bf d407 c33c 8fbd 7dbe deb2 08c0
000000b0: 3c68 6ebe fa74 02bd 1f21 7bbf e55a 7dbf
000000c0: fc79 d4be 3cfa 33bf 6c5b 57bf e64a 9dbd
000000d0: 9586 74bd 3c13 75bf a5ae 90be a32c 9cbf
000000e0: 9e7c 82be 70f9 e8bd e957 aebd eb2e b83e
000000f0: d934 90bf a75b aebe 9cc0 72bf b330 8dbd
00000100: d789 24bd 38e7 b9be 72f4 6fbe 5919 a23d
00000110: 3e0f bcbe 28f2 92bf e974 d9be fd0a ebbe
00000120: d862 62be d923 58bf 999c f5bf e25e b4bd
00000130: 0767 6ebf de3f 67bf bb00 aebe b30f 67be
00000140: 65c5 bebd 9e5a 71be e494 66be f328 35bf
00000150: dd23 b2bd c85d c1be 8fe3 a5be 240e 33bc
00000160: 99c6 c3bd 88c0 a5bf 5a02 41bd f8d7 2bbf
00000170: 4b4f acbe e0a1 17bf dbba abbf a559 95be
00000180: 4d27 aebe db39 97bb ae4d b9bf 310b b7bf
00000190: 068a da3c f461 3bbf d5ce 0abf af9d 6ebf
000001a0: 6399 22be fbf2 d7be b06b 24bd ac32 cbbf
000001b0: 25be bcbd 8e0c b6bf 9a2e 2c3d 5f33 f9be
000001c0: 53a3 b2bf e878 b93e 92cd 97be 0009 b53b
000001d0: 072b 61bf b30e bebd 8699 66be 2c62 46bf
000001e0: d01e 64bf 47ba 3ebe 9795 8ebd d0ab b9be
000001f0: dece 16bf b462 25be d53b c13d d63b 7ebe
00000200: 7753 7ebf cbe0 65bd fc7c 1fbd 5d17 00bd
00000210: d018 67bf 4a9a 8ebf 356a 31be 69b6 8bbe
00000220: 6437 cebf 4b0d a93d b0fb 1dbc f2b2 63bf
00000230: a04b d0bf c3e1 6cbd f259 64be 27c3 1cc0
00000240: a186 98bf 0b53 b73d e7c1 40be b5d8 30be
00000250: 5854 4bbf 1bc6 9fbe f3fc 4ebd 6b08 aa3d
00000260: a47b 38bd 5f47 08bd 49ea 6abf 0d41 9abf
00000270: d910 80bf 3548 3dbe fd4e 59bf 94ea 8ebf
00000280: a0f0 00bf 3e74 a3bf 3941 36be 5f4f 2e3b
00000290: 99b9 73bf 4df6 dfbd 3bf7 72bf 4d49 5bbd
000002a0: 1ec7 85be 1c39 96bf bd78 a1bf b208 9ebe
000002b0: c45a 12bf d431 ecbe 4e16 0bbe f8e4 18bf
000002c0: 167b 2cbe 7b48 59be 2c7f febe b040 a1bf
000002d0: 1f4e aebd 106e fcbe 9dc8 2bbf 94a3 1fbd
000002e0: c889 8bbe 0721 afbe e737 8ebe 2dfa a4bd
000002f0: ce55 71bf a71f 03bf 0027 8fbb 5fff 673d
00000300: aaad a8bf 3847 b8bf 0343 c9bf 997c 61bf
00000310: cdb2 e3be 6c3f fd3c 8b00 6cbf 9b9d a1bf
00000320: 4a00 c8bd 8bb3 31bf e3ec 413e daf2 513e
00000330: 45b0 e7be a362 28be 7a17 56bd 96f2 9d3e
00000340: 27ab 6fbe 10cd 783e 024d 11bd f325 fc3d
00000350: d760 2e3e d141 efbf 26c7 41bd 95ec c43d
00000360: dfcf e5bd 7a2b b7bd 8e79 74be ca3e 51bf
00000370: 2441 ef3d 1f75 18bf 15ad bb3d c132 f9bd
00000380: 2e71 20be 3a42 2cbf a0dc 5bbb cda5 3abe
00000390: 201e 06bf beb9 22bf 7db0 583c f160 53be
000003a0: 6bbd 48bf 590f 6f3e a70f 57be 2860 98be
000003b0: f5f8 b1be a9cb 143d 0e32 25bf 68bf 1ebf
000003c0: 2587 a8be bddc bd3d f0f5 dcbd 226e 28bd
000003d0: 4051 373e 6523 8f3d bf4f 72be f00e bdbe
000003e0: 368d 2ebf 920b 98be 71dd c3bf 4469 963b
000003f0: e14e b73d 6d02 c6be 99e2 d0be bf06 883e
-0.025965523 -0.16397564 -0.078186825 -1.7901226 -0.57453203 -0.4801001 -0.027958177 -1.0488411
-0.8850089 -1.5813407 0.09362931 -0.5438813 -0.41490284 -2.3026035 -1.1070294 0.026070543
-0.16757788 -0.9404626 -0.6814876 -0.026314871 -0.22067605 -0.7487178 -0.050578173 -0.25930566
-1.3085938 -0.51948446 0.079642214 -0.31869304 -0.3266127 -0.79960966 0.07956015 -2.4083622
-0.06736636 -1.25484 -0.64841664 -0.72628677 -0.43336034 0.055122126 -0.76954746 -0.50549656
-1.3097864 0.023807444 -0.24779342 -2.1359172 -0.2328195 -0.03184984 -0.98097414 -0.9896682
-0.41499317 -0.703037 -0.84123874 -0.07680301 -0.05969866 -0.95732474 -0.28258243 -1.2201122
-0.254857 -0.113757014 -0.08512861 0.35973296 -1.1266128 -0.340543 -0.9482515 -0.06894054
-0.040170517 -0.36309218 -0.23433092 0.07914991 -0.3673038 -1.148015 -0.42472008 -0.4590682
-0.22108018 -0.844297 -1.9188415 -0.0880716 -0.9312596 -0.9033183 -0.33984932 -0.22564583
-0.09314994 -0.23569724 -0.22517735 -0.7076561 -0.08698247 -0.37766862 -0.32400176 -0.010928664
-0.09559364 -1.2949381 -0.047121383 -0.6712642 -0.33654246 -0.59231377 -1.3416399 -0.29169956
-0.3401436 -0.004615051 -1.4476831 -1.430029 0.026677143 -0.7319634 -0.5422185 -0.93209356
-0.15878825 -0.42177567 -0.04014176 -1.5874839 -0.09215955 -1.4222581 0.04203663 -0.48672006
-1.3956093 0.36225057 -0.29649025 0.0055247545 -0.8795628 -0.092801474 -0.22519502 -0.7749355
-0.89109516 -0.18625747 -0.06962126 -0.36263895 -0.58909404 -0.16150934 0.0943524 -0.24827513
-0.9934611 -0.056122582 -0.038937554 -0.03127228 -0.90272236 -1.1140835 -0.17325671 -0.27287605
-1.6110654 0.082544886 -0.0096425265 -0.88944924 -1.6273079 -0.05783249 -0.22299936 -2.4494112
-1.1916085 0.08951386 -0.18823968 -0.17270167 -0.79425573 -0.3120583 -0.0505342 0.08302387
-0.045039788 -0.03327119 -0.9176374 -1.2051102 -1.0005141 -0.18484576 -0.8488615 -1.1165338
-0.50367165 -1.2769849 -0.17798318 0.0026597602 -0.95205075 -0.1093565 -0.94908494 -0.053536702
-0.26128477 -1.1736178 -1.2614971 -0.3086601 -0.5716975 -0.46131766 -0.13582727 -0.5972438
-0.16843829 -0.21219055 -0.497064 -1.2597866 -0.08510994 -0.4930272 -0.67102987 -0.03897436
-0.27253556 -0.34204885 -0.27777025 -0.0805553 -0.9427155 -0.5122017 -0.004368663 0.056640025
-1.3177998 -1.4396734 -1.5723575 -0.88080746 -0.44472352 0.030914031 -0.9218833 -1.2626222
-0.0976568 -0.69414586 0.18938021 0.20502797 -0.4525167 -0.16443877 -0.052268483 0.3084914
-0.23405133 0.24296975 -0.03547383 0.12311926 0.17029129 -1.869196 -0.047309063 0.09615437
-0.11221289 -0.08943839 -0.23874494 -0.81736434 0.116823465 -0.5955371 0.09163872 -0.12167884
-0.15668175 -0.67288554 -0.003354825 -0.1822731 -0.5238972 -0.6356467 0.013225672 -0.20642449
-0.7841403 0.23345698 -0.21002065 -0.2976086 -0.34760252 0.036327038 -0.645295 -0.6201081
-0.32915607 0.09270618 -0.10789096 -0.041120656 0.17902088 0.06989173 -0.23663233 -0.3692546
-0.6818422 -0.29696327 -1.5301954 0.0045901854 0.08950592 -0.38673726 -0.4079788 0.26567647

l3.bias f4 [5]
00000000: 2658 d6bd 4f78 dcbd a52e 583b 703c 693d
00000010: f085 8abe
-0.10466032 -0.107651345 0.0032986787 0.056942403 -0.2705531
