src/chatbot_ann.pth (torch, 804471 bytes, 6 tensors)

l1.weight f4 [100, 1828]
00000000: a8ce a539 750b ebbc 1d9f 38bb 5b07 1c3a
00000010: 2daa 023d 38e8 003b b7d1 11bc 1149 b7bc
00000020: daf1 e1b9 07ee 34bb 0005 74bc c628 7fbb
00000030: 0a0a 103d 1822 e8bc 4f42 423c a0af 033d
00000040: fb62 07bc aa9e 06bc 57b5 b33c 2884 103b
00000050: 1ad0 bc3b 25b0 65ba 0fbd 253d 54ff f53b
00000060: cbc1 183c 84b7 b5bb 1a56 18bc 399b a53c
00000070: 48da 57bb a38e b8bb b29c 6b3b a1f6 c73b
00000080: fd2c bd3c 566e f43c 8595 5cbc b554 033d
00000090: 6c24 bb3c 31a1 ba3c 56a7 b0bb 21b0 e53c
000000a0: 553a 9a3c d8f5 eb3b e257 39bb bb68 43bc
000000b0: 7b86 213b b9f8 123d 9272 45bb 8456 e0ba
000000c0: 8c87 fdbc e850 e1bc 9959 3d3c 6931 763c
000000d0: 5718 d13c dd0d a0bc e872 27bc 01e4 ab3b
000000e0: 6c11 70bc 9894 a0bc b581 52bb 849b 593c
000000f0: b7d0 8bbc 92c8 9c3b 270f 343a 4db6 0339
00000100: 37c6 8b3c 5d76 d0bc df42 983b c055 c5bc
00000110: cdb1 893c db76 a73b 97b8 093d dab0 5dbd
00000120: 8385 253c 3363 fe3c c5f6 20bc 8f98 d1bc
00000130: f53a 09bd 232c dcbc b927 e83b 10c2 7abb
00000140: 6a07 96bc 02ff 043c b8cb 113c 60cc c63c
00000150: 4f94 20bd aec2 b4ba fe46 9bbb f362 b83b
00000160: 3a62 7f3c b2c6 413c e75a 97bc f5d1 10bc
00000170: a4ae bcba d4a6 d33c f579 fbbc aafc 073c
00000180: 5287 a1bc 2114 7e39 be6f 043d b373 cb3a
00000190: 6af8 f23c 9373 a5bc 60f9 66bb 9577 aebc
000001a0: cc15 433d dc54 303d a4c3 91b9 679c 06bc
000001b0: e006 c2bc 82f9 f43c 3358 913c e051 a9bc
000001c0: b0c0 6e3c 2acf 34bb 3c1d 4dbc 0551 85bc
000001d0: 54ea 293c 1fa5 ce3b f392 a63c 00f6 d738
000001e0: 0efc 983c 99d5 e1ba bcd3 8a3b 72b2 b03c
000001f0: 84c6 a2bb e4a8 d1bc 5e08 aebb adbe 0f3d
00000200: 0fae f93b eb82 a03c d691 353b acb3 97bb
00000210: a3cf 3abc 38b6 9b3c d108 993c 64e0 5dbc
00000220: f070 1ebc a171 ed3b d5ae d43a 24c0 c53c
00000230: f375 c23b e937 2ebd b63e 863c 389c 533b
00000240: 7e38 5b3c e701 283d aac0 6abb edc7 92bc
00000250: 39de 353d 2d96 ef3c a01f 0c3b 855e a33c
00000260: 9832 fb3c ebb0 8fbc f222 aeba 43d2 87bb
00000270: 0f64 063d 7f11 90bc c9c2 633c 512d 973c
00000280: 0e51 e5bc 68ff d6bc fedc 22bd d82d 71bb
00000290: 4413 22bc 629b c1bc d7f9 523c cf7c bf3c
000002a0: 45bc 843b f8f0 d8bb 64e8 98bb 437c 743c
000002b0: 9f10 003c 3a77 83ba 8e30 dfba 21b4 bb3c
000002c0: 2fc8 89bd f6c4 f53b 5024 543c 1b1f 613d
000002d0: e735 023c a33f 043d fd32 9b3c 8d86 153d
000002e0: 1044 103c 322c 973c 48c8 34bd 567b 50bc
000002f0: c5d0 ed3c 5e24 033c 2278 42bc 8d92 7abc
00000300: b0a3 8e3b 21e2 9cbc e6e6 2fbc 60b4 3dbc
00000310: dd48 20bc a4b8 58bc e301 c8ba c2ca babb
00000320: 418f 033b 7c86 a73c e940 c83a 7a7f b43c
00000330: 1d27 74bc 1c94 aa3c 796b 0c3d 8d3d fd3a
00000340: 80ee 163c 65ae 1abb 7340 d3bb 7273 543c
00000350: 392d 0c3d 7e9e 3c3d 770e feba 51a4 613d
00000360: 076a 123c f156 51bc 6e01 f5bc 4236 c43c
00000370: b534 85bc beed 5e3c 29aa 2fb9 2fe6 d63c
00000380: 5e03 983c 5cb0 233c e527 1e3b 8246 a53b
00000390: ce1e 9bbc f63d adbc 4094 4fbb c3a0 b83c
000003a0: 1b83 333d eded 3c3d f52c 183d 5711 f6ba
000003b0: a0c1 903d cc0b 9fbb 73e2 ecbb 5021 603c
000003c0: 16ce f33c 06bb adbb acb5 a4bc 9526 1d3b
000003d0: 8340 abbc 4445 ccbb 528f dd3c 7f80 b3bb
000003e0: 0c82 b23c 44fa 9cbc f683 e7bc 3859 d13a
000003f0: c7ba a8bb 65a2 d03c 62cb 623c 7221 62bc
0.00031625223 -0.028691987 -0.002817101 0.0005952024 0.031900574 0.0019669663 -0.008900098 -0.022373708
-0.00043095538 -0.0027607696 -0.01489377 -0.0038934215 0.035165824 -0.02833657 0.0118566295 0.03214991
-0.008263345 -0.008216539 0.021937056 0.0022051428 0.0057621123 -0.00087619043 0.040463503 0.007507244
0.009323548 -0.0055455584 -0.009297872 0.020215617 -0.0032936502 -0.005632238 0.0035951552 0.0061023985
0.023092741 0.029837769 -0.013463383 0.032063205 0.022844516 0.02278194 -0.0053910417 0.028038086
0.018826643 0.0072009377 -0.0028281142 -0.011926825 0.0024646807 0.03588173 -0.0030128104 -0.0017115627
-0.030948423 -0.0275044 0.011557006 0.015026429 0.025524301 -0.01953786 -0.010220267 0.005245686
-0.014652591 -0.019602105 -0.0032120768 0.013281707 -0.017067296 0.004784652 0.0006868713 0.00012561046
0.01706229 -0.025447065 0.0046466435 -0.02408874 0.016808415 0.005110604 0.033623304 -0.054123737
0.010102632 0.031053161 -0.009824459 -0.02558544 -0.03350349 -0.026876515 0.0070848134 -0.0038262643
-0.018314082 0.008117439 0.008898668 0.024267375 -0.039203938 -0.0013790929 -0.0047386875 0.00562703
0.015587384 0.011827158 -0.018475963 -0.00883912 -0.0014395309 0.025836386 -0.030697802 0.008299986
-0.019717846 0.00024230826 0.03233313 0.0015522152 0.029659469 -0.020196712 -0.0035243854 -0.021297256
0.04762821 0.04304968 -0.0002780232 -0.008216 -0.023684919 0.02990413 0.017742252 -0.020668924
0.0145723075 -0.00275893 -0.012519177 -0.016273985 0.01037081 0.006306305 0.020333743 0.0001029782
0.018674877 -0.0017229795 0.0042366665 0.021569464 -0.0049675126 -0.025593229 -0.005311056 0.035093952
0.0076196264 0.019593677 0.0027705333 -0.004629573 -0.0114020435 0.019007787 0.018680962 -0.013542268
-0.009670481 0.0072462116 0.001622642 0.024139471 0.005934471 -0.04253379 0.016387325 0.0032289159
0.013380168 0.04101744 -0.0035820403 -0.017917598 0.04440138 0.029246414 0.0021381155 0.019942531
0.030663773 -0.017540416 -0.0013285561 -0.004144938 0.032810267 -0.017586468 0.013901421 0.018454226
-0.027992751 -0.026244834 -0.039761536 -0.0036801007 -0.009892289 -0.023633663 0.012876949 0.023374943
0.004050764 -0.0066205226 -0.004666375 0.014922204 0.007816463 -0.0010030039 -0.001702802 0.02291304
-0.06727635 0.007500286 0.012948111 0.054961305 0.007947422 0.03228725 0.018945212 0.03650527
0.00880529 0.018453691 -0.044136316 -0.012724718 0.029030213 0.008004276 -0.011869462 -0.0152937295
0.004353009 -0.019150795 -0.010736203 -0.011578649 -0.009782997 -0.0132276155 -0.0015259351 -0.00570044
0.00200744 0.02044987 0.0015278134 0.022033442 -0.014901903 0.020822577 0.03428218 0.0019320712
0.009212136 -0.0023602482 -0.006446892 0.012966977 0.034222815 0.046049587 -0.0019382973 0.055088345
0.008936412 -0.012777076 -0.029907908 0.023951653 -0.016260484 0.013606487 -0.0001675269 0.026232807
0.018556293 0.009990778 0.0024132666 0.0050438056 -0.018935587 -0.02114771 -0.0031674057 0.022537595
0.043826204 0.04612534 0.03715225 -0.0018773478 0.07068181 -0.004853701 -0.0072291433 0.013679817
0.029761355 -0.005301836 -0.02010616 0.0023979296 -0.020904785 -0.006233843 0.02704588 -0.0054779644
0.021790527 -0.019162305 -0.028261166 0.0015972024 -0.0051492187 0.02546806 0.013842436 -0.013801919

l1.bias f4 [100]
00000000: 09a5 173e 1f0d 893d fcdc ca3d 28f5 c53d
00000010: af85 113e 2e86 023e 0ae2 f43d a3f4 873e
00000020: d20e c93d 4816 763d 190a 443e c681 da3d
00000030: eadf d73d 2787 f73d 3d28 d63d 2b21 563d
00000040: 6b1d 033e ad92 1d3e ba84 523e d0e2 113e
00000050: a5b6 b43e a4f7 893d da83 d93d d2f9 a33d
00000060: 5347 023e 9c2e 973d f4ec 9d3d 1489 9a3e
00000070: 2ca1 0b3e 50b5 473e e6dc f23d 0834 453e
00000080: 9760 2a3e e123 fb3d 2e67 4e3e 514a d13d
00000090: 7f7b 053e cebd 6c3d 29b6 a53d 36f8 003e
000000a0: 3512 bf3d f8fb 073e c36a b93d b7f3 833d
000000b0: dbee da3d 83b7 643e 1b25 653d 48b4 a23d
000000c0: ae85 7f3d 1092 e33d c7c9 cf3d 699f 913e
000000d0: e511 143e 1d67 023e 1d79 ac3d 9b07 913d
000000e0: d46a 183e 0e1b a73d 130d 4e3e 7aac cc3d
000000f0: 631c e33d e951 e63d c18f af3d e342 ef3d
00000100: 610b 863e 76fa 8b3e bc93 333e 8bc5 c23d
00000110: 5bef 143d 1ae2 e63d b272 d93d 6ff2 bc3d
00000120: 32d4 f73d 8cb9 b63d 2cd6 003e 51d7 ce3d
00000130: a7bf e63d ebec 8e3d d083 fd3d f862 073e
00000140: 4300 e33d 3122 8a3d 56ac fe3d e5b2 043e
00000150: b9f0 793d 42f3 183e 1237 0f3e 34ec b63d
00000160: ee2c 2c3e b823 033e 1fbb 2c3e f4d5 5a3d
00000170: ad70 e03d f3f8 1f3e d854 143e d766 813d
00000180: fabf 263e 9f7c 583e be6c 283e ff51 e83d
0.1480905 0.06691956 0.09905431 0.096659005 0.14211152 0.12746498 0.11957176 0.2655383
0.0981728 0.060079843 0.19144477 0.106692836 0.10540755 0.12086325 0.104568936 0.052277725
0.12804191 0.15387984 0.20558444 0.14246678 0.35295597 0.06736687 0.10620852 0.08006634
0.1272252 0.07381937 0.07711211 0.30182707 0.13635701 0.19502759 0.11858539 0.1925813
0.16638409 0.12262703 0.20156547 0.10219253 0.13035391 0.0577982 0.08091385 0.12594685
0.093296446 0.13279712 0.09053566 0.06442969 0.10690089 0.22335629 0.05594359 0.07944542
0.062383346 0.111118436 0.10145908 0.28441933 0.14459951 0.12734647 0.08421538 0.07081529
0.14884502 0.08159457 0.20122175 0.09993835 0.11089399 0.11246092 0.08572341 0.116826795
0.26180556 0.27339524 0.17536825 0.095103346 0.03636108 0.11273594 0.106175795 0.09225928
0.1210102 0.08922109 0.125817 0.10099662 0.112670235 0.06978782 0.12378657 0.13221347
0.11084034 0.06744803 0.12435214 0.12958868 0.061020587 0.14936545 0.13985851 0.08931771
0.16814014 0.12806594 0.16868256 0.053426698 0.10958991 0.1562231 0.1448549 0.06318443
0.16284171 0.21141289 0.16447732 0.113437645

l2.weight f4 [100, 100]
00000000: 1686 a1bd fa02 9ebd a956 b4bd 7c41 6f3d
00000010: 4f96 97bd b693 aabd 7211 9a3d 1ffe 87bd
00000020: f423 92bd 29c9 523d 7171 be3d 371a 87bd
00000030: f598 82bb c968 c3bd e83c c03d c829 01bd
00000040: 3fd0 b1bd 25ea 453c 84a1 9dbd 842e c73d
00000050: 9480 5bbc bb39 84bd acf7 a8bd a2d3 edbb
00000060: ff23 e53b 8613 12bd f38e 923d 9739 94bc
00000070: 732d 32bc a2f6 2fbd dd09 c3bd 9469 923d
00000080: 282c cabb 304e c0bc 40dd 073d e6e3 393d
00000090: febe 633d d5a1 b03d 181b 3fbd 1ff8 82bb
000000a0: 6ad3 973b ddf2 2d3d d26d 98bc 6d89 95bd
000000b0: 8284 6bbd 6de1 2dbd d036 c13d d552 fb3c
000000c0: 1898 8bbc cea3 88bc 826b 10bd b049 05bd
000000d0: e292 8abd b7a1 acbc 4000 383d 02fb 41bb
000000e0: f29d 13bd 74e7 8b3d 1c60 22bd 3b86 733d
000000f0: 46e9 ccbd e903 983d 90a8 5dbd 5519 84bd
00000100: f8ed 913d c9c5 863d 6e04 9a3d a23a 633d
00000110: 1379 91bc 5622 dcbb 2da4 44bd 956b cebc
00000120: dcb2 44bc bee3 613d 6886 aa3b 3ddd 46bd
00000130: d092 c73c 3d68 9d3d 6a54 2d3d a7cd c5bd
00000140: 1ab9 7b3c 8891 a2bd 7965 083d 873a a6bc
00000150: 279a 89bd 7d27 d43c 30c2 74bd 9951 c9bd
00000160: 2db6 aa3c 44db 993d 9a2d 05bd 565a 7fbc
00000170: b7c3 333d 13a0 033d 8796 6e3c 6008 adbd
00000180: b331 813d 3ae6 adbc 36fe bd3d b0b9 763b
00000190: fe95 783e 8f99 f53d 50e0 563e 6fac 3cbd
000001a0: 2191 ebbc ea02 19be 2c20 db3d 699d a2bd
000001b0: a9c4 84bd 985b f23d 178c 8abd 3d2e 11be
000001c0: 57d8 06be b7b7 f23c 0f4a 823d 92dd 833e
000001d0: 071f 30be 82fe 313b b8ad 943d 7a79 d5bd
000001e0: d9bd 67bd 83a6 763e 109c c0bd 4825 253d
000001f0: 57fa 703d 0b0a 133e d482 1b3e 6952 d5bd
00000200: 7e8a 943d 4002 0a3e 6f0a 61bd 2e62 d3bd
00000210: 4aef e63c 53d4 653c f88a 4f3e 5bff 00bd
00000220: cfd5 af3c 62d5 503e 287a fe3d 1494 283c
00000230: ac83 093e ba9e 8b3a eb9c f83d af04 7d3e
00000240: b5c7 c6bc 3cbb 45bd 0302 723d 94fd 633e
00000250: bdee cc3d 76eb febd 25f4 e6bd 3304 883c
00000260: c3f5 c93d 1ab7 023e c471 173e 816e 483d
00000270: bbc1 efbc db73 04be bcb1 4e3e 8e9b 7fbd
00000280: 6d92 02be 0148 ab3d b5ad 97bd 2237 22be
00000290: 05ab 60be f3e0 29be 4a41 683d 2ff2 dcbd
000002a0: fcd4 973e dbe5 8ebd 5429 d0ba cc8a 90bd
000002b0: 84f6 523c 70e4 853d 03d3 af3d aea3 b43d
000002c0: 7ad2 2f3e af91 263d c3ee 89bd 868a cf3d
000002d0: c0bf babd ca27 043e 8beb 543e 7c90 863e
000002e0: 5ec3 b8bd 369d 933d ec6f cc3d 0d82 643e
000002f0: df49 043e 810f 223d 4393 c1bc 63f2 a23d
00000300: 7d66 eabd a325 873d 3403 aebc 9228 b83d
00000310: f637 003e fa18 14bd e859 7c3e b24a 5a3e
00000320: fd8a 603f 0f22 0b3f 569f d23e ca43 98be
00000330: 6e43 93be 087e babe bfc4 893e b11b 233e
00000340: 0725 f6be 0f34 db3e f2dd 853e 287c 7fbe
00000350: dd6e c2be e950 9ebe a85c 853e 1165 023f
00000360: d451 bebd e79b a73c 2941 053f 74db 54be
00000370: 0c34 703e ed7a 0a3f 74a8 f9be 4791 c6be
00000380: 236f 8d3e 3e46 043f 538a dd3e 0fc8 da3e
00000390: 2ffe 833e 0b95 b43e b52f 98be 4c6e 583e
000003a0: 4886 16be c2d9 8fbd bf7b e03e 8f63 8ebe
000003b0: afb8 52be 01ef 1e3f 5339 053f b168 74be
000003c0: 9fcb 343e 2d37 123e a1b0 313f 6fdf a03e
000003d0: 7dfc c4be ea43 be3d b466 4a3f 2d95 2d3f
000003e0: b161 183f ae23 bdbe 6872 9ebe b273 e73e
000003f0: 3e44 7a3f 6e2a 233e 05de 923f 47a7 893f
-0.07886903 -0.077154115 -0.088055916 0.05841206 -0.07401716 -0.08328955 0.07522859 -0.066402666
-0.07135764 0.051461373 0.09298981 -0.06596797 -0.003985519 -0.095414706 0.09386617 -0.031533986
-0.08682298 0.01207975 -0.07696822 0.09725669 -0.013397355 -0.06456324 -0.08250365 -0.0072578946
0.0069928165 -0.03566315 0.07156172 -0.018093867 -0.010875094 -0.042959817 -0.09523366 0.07149044
-0.0061698146 -0.023474783 0.033169985 0.045383357 0.055602066 0.08624617 -0.046656698 -0.0039968635
0.004633357 0.04246794 -0.018607054 -0.073016025 -0.057499416 -0.04245131 0.09434283 0.030679146
-0.017040297 -0.01667967 -0.035258777 -0.032540977 -0.06766297 -0.021073205 0.044922113 -0.0029599075
-0.0360393 0.068312556 -0.03964244 0.059454184 -0.10005431 0.07422621 -0.05411583 -0.06450144
0.07125467 0.06580693 0.07520376 0.05547584 -0.017757928 -0.0067179604 -0.048008133 -0.025197783
-0.012005534 0.055148832 0.0052040108 -0.048550833 0.024361998 0.076858975 0.04231683 -0.09658366
0.015363956 -0.07937914 0.033299897 -0.02029158 -0.06718855 0.025897736 -0.059755504 -0.09830017
0.020838821 0.07512525 -0.032514192 -0.015585503 0.04388782 0.03213508 0.014562256 -0.08448863
0.063083075 -0.021227945 0.092770025 0.00376473 0.24275967 0.119921796 0.20984006 -0.046062883
-0.028755726 -0.14942518 0.10699496 -0.0794018 -0.064828224 0.11833876 -0.06765001 -0.14177795
-0.13168465 0.029628618 0.06361782 0.25754982 -0.17199336 0.0027159755 0.07259697 -0.104235604
-0.056577537 0.24086957 -0.094047666 0.040318757 0.058832493 0.143593 0.15186626 -0.10416109
0.07252978 0.13477421 -0.05494159 -0.10321461 0.028190274 0.014027673 0.20267856 -0.031493526
0.021464257 0.20393899 0.12425643 0.010289211 0.13429135 0.0010652163 0.12139305 0.24708818
-0.02426515 -0.048274264 0.05908395 0.22264701 0.10006473 -0.12447254 -0.112770356 0.016603565
0.098613285 0.1276516 0.14789492 0.04893351 -0.029267183 -0.1293482 0.20184988 -0.062404208
-0.1275117 0.08363343 -0.07406179 -0.15841344 -0.21940239 -0.16589718 0.05670289 -0.1078838
0.29654682 -0.06977435 -0.0015881457 -0.070577234 0.012876157 0.065377116 0.08585169 0.08820282
0.17170134 0.04066628 -0.06734993 0.10133843 -0.09118605 0.12905803 0.20792978 0.26282108
-0.09021638 0.0720772 0.09982285 0.22315235 0.12918805 0.039565567 -0.02362979 0.07956388
-0.11445329 0.065989755 -0.021241762 0.08992113 0.12521347 -0.036156632 0.24643672 0.21317557
0.8771208 0.54348844 0.4113719 -0.2973922 -0.28762382 -0.3642428 0.26907918 0.15928532
-0.48075125 0.42813155 0.26145893 -0.24949706 -0.37975207 -0.30921105 0.26047254 0.50935465
-0.09292951 0.020460082 0.5205255 -0.2078684 0.23457354 0.5409382 -0.48761332 -0.38782713
0.27623853 0.5166968 0.43269596 0.42730758 0.25779864 0.3526996 -0.29723898 0.21135825
-0.14699662 -0.07023956 0.4384441 -0.27810332 -0.20578264 0.6208344 0.52040595 -0.23868062
0.176558 0.1427886 0.6941014 0.31420466 -0.38473883 0.09290297 0.7906296 0.6780575
0.59524065 -0.36941284 -0.3094666 0.45205456 0.9776038 0.15934154 1.1474005 1.0754174

l2.bias f4 [100]
00000000: c128 56bd c6f4 9c3c 5c60 983e e4b9 9a3d
00000010: 7b0e 353e aa12 61bd 572e d93d 92d1 f5bb
00000020: 9c93 433e 329a c13d 9d09 a23d 7339 9a3c
00000030: 8bd7 363d 8aba 1d3e 2ef0 323e 3a0a 96bd
00000040: 2326 563e fe6c c63d 3e0c 0a3d ec33 463e
00000050: a8c5 803e 2f33 9c3d 7b58 a23d 9aea 223d
00000060: 17de 333e 5046 67bd 624e d83c dc32 6abd
00000070: cc69 79bd 47fc a23d dbc8 3d3e ed30 363e
00000080: eb96 8c3d c95f 323e 4541 50bd 6acb 53bd
00000090: 33c9 3d3d deb0 a93d 2fb7 0bbd a91b 8d3d
000000a0: 935c 773e a06f 4e3d a69f 993d 349b 9c3d
000000b0: 57a0 cf3c 730d 5bbd b153 1f3d 4897 7dbd
000000c0: 9bf5 983d d0ed 623d d11d 0e3e d458 393d
000000d0: 6372 903c ab25 023e de82 c13d f5e1 17bd
000000e0: a757 8b3d 2f70 273e fddc a93d 3699 293d
000000f0: 16df 95bc 2169 04bc aa2b fbbc 29c6 be3d
00000100: 310a a93d 98b9 513d 679c b93c ca7a 8cbd
00000110: 5838 d33c 40b3 673b c04c c2bb 47c4 a23b
00000120: cfa1 d23d 98dc a8bd 18b2 1ebc 8f65 b03c
00000130: fef3 0b3f fdc0 9b3c ec19 1fbc bc0e bf3c
00000140: 1784 8c3d c91b a2bd 4ec6 4cbd 9f24 e73d
00000150: 4567 053e d9b5 243e 2efb 723d 8657 713e
00000160: 592f d23d 5805 883e 34a8 a43d 1d93 cb3d
00000170: 5372 4f3e df26 c13d 88bd a73d 5421 403e
00000180: 968d f7bb 8ab9 e73c 81a6 3b3e 6e44 1dbb
-0.05228496 0.019159686 0.29761016 0.07554987 0.17681305 -0.05494944 0.10604542 -0.0075017894
0.19099277 0.094532385 0.0791199 0.018826222 0.04463915 0.1540319 0.17474434 -0.07326169
0.20912986 0.09688757 0.03370308 0.19355744 0.251508 0.0762695 0.079270326 0.039774515
0.1756519 -0.05646354 0.026404563 -0.05717741 -0.06089191 0.07958274 0.18533652 0.17792101
0.06864723 0.17419352 -0.050843496 -0.051707663 0.046334457 0.08285688 -0.034110244 0.068900414
0.24156408 0.050399423 0.07501154 0.0764679 0.02534501 -0.053479623 0.038898174 -0.06191185
0.074687205 0.055402577 0.13878562 0.04525073 0.017632669 0.12709682 0.09448789 -0.037080724
0.06803828 0.16351388 0.08294103 0.04140588 -0.018294852 -0.008081705 -0.03066047 0.0931514
0.08253897 0.051202387 0.022657586 -0.06859358 0.025783703 0.0035354644 -0.0059295595 0.0049672457
0.10284769 -0.082452 -0.009686016 0.021532802 0.5466918 0.019012922 -0.00971077 0.023322456
0.06861132 -0.07915456 -0.049993806 0.11286282 0.13027675 0.16084994 0.059321575 0.23568544
0.10262937 0.26566577 0.08039895 0.09940169 0.20258455 0.09431242 0.08190447 0.18762714
-0.00755472 0.028286714 0.18325235 -0.0023997086

l3.weight f4 [3, 100]
00000000: 250b e7bc 4565 3f3e 6569 793e 688b b33d
00000010: 1338 a9be c6e9 a13d bb3d 94be 7032 c4bd
00000020: f9ad c53c 98f7 6a3e 77b8 86be 06d1 5f3e
00000030: 90df 873e 3d73 88be 1b8d 8fbe d599 9e3d
00000040: 0f4f c83d 3ce5 00be 659d 4ebe 28d0 bfbe
00000050: 76be efbe 0d42 073e d44e 28be 1823 acbe
00000060: 9984 ccbe 7f54 aa3d 5b2e 233e df0d 14bd
00000070: 9767 88bd dd44 e63e 5a3d 71be 50e1 bdbe
00000080: 3417 d8bd b708 d3be 9672 5d3d 2210 aabd
00000090: c089 913e ac5a db3b 9a92 af3d 0ef8 c7bd
000000a0: 644c 39bf 7ad6 a5bd a82f ee3d 4bcb 54be
000000b0: 018f a23e f259 b6bd 499c 323e 1fee a93d
000000c0: 2d5b 72be 5e1b 22be bb14 a4be b294 c0be
000000d0: ffa6 8dbe da3c b73d 75e0 9dbe c494 a23c
000000e0: d04a e13d 6bfe 5cbe 34d4 843d c760 fe3d
000000f0: 79b2 023e 2492 3a3e 4a4c 9d3d e967 30be
00000100: ddf0 763e a1ad b1be 8135 81be d026 663c
00000110: 33da 7b3e 8174 0a3e c4a5 98bd a201 babd
00000120: 883b 3bbe 10ac a8bc 3632 943d a99c 573e
00000130: 60c0 aabf 752a eb3d 88ad 8b3e 8ca8 733e
00000140: f2f0 7b3e 1f4d 9d3d c7c9 143e 8a1d b4bd
00000150: 6eb2 873e 3d47 a2be 941f 3dbe 181a a5be
00000160: 12ae 0cbe 9994 51bf b955 b1bd dce0 6d3f
00000170: d193 70be a6e4 0b3e 40c0 643e ff14 f83d
00000180: bdc9 9abd d8c1 0dbe 5dae cabe 444f 683e
00000190: 4d8a 793d 815b 88be d13a 01c0 9382 75bb
000001a0: 1e33 203e 16de 3a39 fc5a 823e ca92 bd3c
000001b0: d0e4 17bf 02ea 48be 86ce 863e ebe0 c8be
000001c0: a3e6 3dbe be41 95be c1e7 5fbe feaf 6c3d
000001d0: 04cd febe 1c59 a63d d2dc 383e b921 acbe
000001e0: 144c acbe 46ee 993c 2b3f 243e 081c 823e
000001f0: b1f7 9cbe b70b 29bd cf4d 35be 89d2 ddbb
00000200: 2d65 c43c 12e8 39bf 1055 2abe ddae 723e
00000210: 816b cc3d 62b0 4e3e 02d4 233d 8d62 b83d
00000220: 49b6 91be 06dc cabd 686d 9ebd 4490 9d3d
00000230: 01f8 943c 2566 f53d 6df0 acbd cfbf 2d3e
00000240: cbf7 2abe 000a 5f3c da50 79be 648a 33bd
00000250: 48a0 7e3e c6b0 1d3e a97b 823e a95b 183e
00000260: 9194 533e fe54 14bf 36bb 443e 5617 7dbd
00000270: 991a 71bd fe28 15be f31f b6bd b1ce b5bd
00000280: 53d9 97bd d2a1 27be d26d cc3d 0b9f 5f3e
00000290: ae54 8dbe 6371 8b3e d070 f73b 1abb 1b3d
000002a0: a81d 83be 86a7 44be f7bf bcbc c297 933c
000002b0: 0149 573e b18f ac3d 9999 e0bc abe7 72be
000002c0: 0f0a 55bf ce8a 9fbe 38ad 5ebe 7ed8 77be
000002d0: e994 78be f5ad c3bd 062d cabd 0c04 143e
000002e0: 9ec3 76be 0994 aabe b6b8 383e d0a4 76be
000002f0: be18 7c3e 4b9a 8e3e 3d9c 403e c110 e9bf
00000300: 3e61 4bbe 8585 1f3c 1e85 99be be6a b3be
00000310: d2e7 9abd 1a9e 393e af72 a2be 466c 75be
00000320: 7c9a 813d cbbd 02bf ddb9 813e cfca ebbd
00000330: 6cc3 4abe d987 6dbd 4bf5 5fbe 39c3 eebe
00000340: 52a7 633e 51c6 c8bd 59f3 80be 6fe0 54bf
00000350: a30c 0abe 5cec b83e b454 a43e 0915 c63d
00000360: 9942 3b3e 2a75 54be 5fb8 66be 3a3d 923e
00000370: 905c cc3e 3e96 3ebe 5b55 5bbe acfd 6fbf
00000380: 17e9 993e 8313 ca3d ec98 56be da91 3cbd
00000390: b86d 5b3c 54e9 8ebf 20f4 2e3e bfa3 bebb
000003a0: 0fcc 5bbe c9ae 523d 0214 743d 404b 03bc
000003b0: dd45 00bf 409b 6bbe b617 a13d 1a1b 68be
000003c0: e138 223e fbaa 97be 5a06 5bbe 89fe 75be
000003d0: 1337 30bf 92a7 543d 54d0 42be 45c5 c33d
000003e0: db47 64be 8526 8bbe 7a72 ab3c 49ff 16bf
000003f0: 7639 cabe c961 7b3e 4b15 8abe 1095 973c
-0.028203556 0.18690975 0.24356611 0.08766824 -0.33050594 0.07905917 -0.28953347 -0.09579933
0.024130808 0.22946012 -0.2631261 0.2185708 0.26537752 -0.2665042 -0.28037342 0.07744185
0.09780704 -0.12587446 -0.20177229 -0.37463498 -0.46824998 0.1320879 -0.1643632 -0.33620524
-0.39944914 0.083168976 0.15935652 -0.03614604 -0.06660383 0.44974414 -0.2355856 -0.37085962
-0.10551301 -0.41217586 0.054064356 -0.08303858 0.28425407 0.0066941585 0.08572884 -0.097641096
-0.7238219 -0.08097549 0.116301835 -0.20780675 0.31749728 -0.089038745 0.1744243 0.08297371
-0.23667593 -0.15830752 -0.32047066 -0.37613446 -0.2766647 0.089471534 -0.3083531 0.019846328
0.110005975 -0.21581428 0.06485787 0.124208026 0.12763394 0.1821981 0.076805666 -0.17227139
0.2411532 -0.3470278 -0.25236133 0.01404734 0.24594955 0.13521005 -0.07453492 -0.09082343
-0.18284428 -0.020589858 0.072361395 0.21055855 -1.3339958 0.114827074 0.2728083 0.23794764
0.24603632 0.07680725 0.14530097 -0.08794697 0.2650332 -0.31694975 -0.18469077 -0.3224647
-0.13738278 -0.8186737 -0.086589284 0.92921233 -0.23493887 0.13661441 0.22338963 0.1211338
-0.0755801 -0.13843477 -0.39586154 0.22686487 0.06092291 -0.26632312 -2.0192149 -0.0037461862
0.156445 0.00017821076 0.2546004 0.023141284 -0.59333515 -0.19620517 0.2632944 -0.392341
-0.18545012 -0.2915172 -0.21865751 0.057785027 -0.4976579 0.08122465 0.18052986 -0.33619478
-0.33651793 0.018790375 0.16039722 0.2541201 -0.30657724 -0.041270938 -0.17705463 -0.0067694825
0.023974026 -0.72619736 -0.16634011 0.23699518 0.09981442 0.20184472 0.03999711 0.09003172
-0.28459385 -0.099052474 -0.07735711 0.07693532 0.018184664 0.11982373 -0.08444295 0.169677
-0.16696088 0.013613224 -0.24347249 -0.04383315 0.2486583 0.15399465 0.2548497 0.14878716
0.20662142 -0.5794219 0.1921204 -0.061789833 -0.058863256 -0.14566419 -0.088928126 -0.08877314
-0.07414498 -0.16370323 0.09981884 0.21838014 -0.27603668 0.27234945 0.00755129 0.03802023
-0.25608563 -0.1920453 -0.023040755 0.0180167 0.21023943 0.084258445 -0.027416991 -0.23721187
-0.83218473 -0.31160587 -0.21745765 -0.24203679 -0.24275555 -0.09554664 -0.09871869 0.14454669
-0.2409806 -0.33316067 0.18039212 -0.24086308 0.24618813 0.2785209 0.188096 -1.8208238
-0.19861314 0.009736423 -0.29984373 -0.35042375 -0.075637475 0.18126717 -0.31728122 -0.23967084
0.06328294 -0.5107085 0.25337115 -0.11513292 -0.1980111 -0.057990883 -0.21870916 -0.46633318
0.22231796 -0.09803451 -0.2518566 -0.8315496 -0.13481383 0.36117828 0.32095873 0.09671981
0.18287124 -0.2074782 -0.2253127 0.28562337 0.3991437 -0.18612 -0.2141928 -0.9374645
0.30060646 0.09867003 -0.20956773 -0.046037532 0.013392858 -1.1164956 0.17085314 -0.00581786
-0.21464561 0.05143622 0.059589393 -0.0080135465 -0.501066 -0.23008442 0.078658506 -0.22666588
0.1584201 -0.29622635 -0.21389142 -0.24022879 -0.68834037 0.05191762 -0.19024783 0.095591106
-0.22293036 -0.27177826 0.02092861 -0.58983284 -0.39496964 0.24549021 -0.2696937 0.018503696

l3.bias f4 [3]
00000000: b9c4 93bc ed7f 993b 2382 c8bd
-0.01803814 0.0046844394 -0.097904466
